fashion_mnist_model.pth (torch, 409264 bytes, 4 tensors)

fc1.weight f4 [128, 784]
0.030561008 0.074582525 0.06710532 0.06391435 0.025245775 0.0073057623 -0.026984867 -0.07636601
0.07022283 0.17009379 0.12849313 0.047581635 -0.10851914 -0.14507788 -0.15027423 -0.14042749
-0.028011074 0.083885595 0.107462354 0.085509755 0.015514095 -0.08092581 -0.026578201 0.039609313
0.059926458 0.06181672 0.06279544 0.0640321 0.017159255 0.018485142 0.044603206 0.045678634
-0.012348999 -0.081095904 -0.1903119 0.06322035 0.059258647 -0.0981866 -0.0013958886 -0.021148028
-0.03132412 -0.090730235 -0.063426614 0.04232102 0.026357261 0.07262297 0.043812178 0.037917554
0.027089408 -0.10131531 -0.08867812 -0.09209089 0.011113639 -0.030763114 0.01682132 0.02225716
0.00744655 0.013976497 0.016918233 0.013125838 4.930661e-05 -0.01572905 0.14933874 0.25452277
0.022399578 -0.02710279 -0.031718 -0.0410865 0.0705989 -0.052734997 -0.061337404 -0.011303494
0.021588221 -0.08308178 -0.044700716 0.007137549 0.20582215 0.15853329 0.044387847 0.008754266
-0.0011329455 -0.045318346 -0.013401985 0.024712654 0.019089365 0.042758416 0.001047011 0.020273559
0.01933606 0.070106834 0.10924564 -0.02360008 -0.079325184 0.009372356 0.013300838 -0.08643809
-0.012847248 -0.09310157 -0.10807921 -0.08822996 -0.030456576 -0.07473245 -0.033061057 -0.07607208
-0.057201173 0.08887577 0.10777198 0.10891832 0.01532508 -0.030821484 -0.05132597 0.04807839
0.020054316 -0.020115964 0.010946612 0.0815407 0.16637439 -0.045635335 0.06667388 -0.0046844417
-0.039596185 0.06731589 -0.043834176 -0.15215218 0.01877437 0.03710589 0.06592089 -0.06534627
-0.20955947 -0.060813073 -0.025555283 -0.038662422 -0.099950545 0.01871517 0.015058873 0.09532212
0.057024416 -0.0072642285 -0.038943887 0.045385588 0.014590486 0.044586495 0.070487745 0.16676153
0.14200525 0.010244713 0.08083817 0.0063151116 0.027022619 -0.037063032 0.007539587 -0.054351572
-0.10672045 -0.0007748057 0.03020162 -0.13114178 -0.056465764 -0.033980705 0.033204637 0.052342076
0.028451469 -0.012000192 0.011670853 0.07740978 0.07684795 0.03159902 -0.054114163 0.021048302
0.028792452 -0.01260391 0.0655854 0.09210375 0.07119885 0.11386207 0.01879286 0.12276378
0.10573737 -0.045848146 -0.03563227 -0.09953145 -0.10498594 -0.015706081 0.03885255 0.037833966
-0.07619248 0.03133843 0.008176553 0.057104535 0.055267084 0.040230133 0.09482738 0.1597242
0.091397315 0.07984131 -0.060128637 0.018024806 -0.03387523 0.051612202 0.047566168 0.052984074
0.13476409 0.11774988 0.15827371 0.2933631 0.15158206 -0.038107768 0.0034151257 -0.13872862
-0.10453304 -0.014938531 0.024671543 -0.010243611 -0.009887305 -0.02583277 0.011215935 0.07004991
0.037364084 0.07886088 0.16818441 0.13531598 0.071457334 0.039506778 -0.0052987714 -0.026751274
0.002207994 -0.02135821 0.031908393 0.09515248 0.20976137 0.16136357 0.12484651 0.2587008
0.2139401 -0.014546697 0.093973964 -0.067368 -0.069862165 -0.008154085 0.030266756 0.036427405
0.040562183 0.106988765 0.08430102 0.18333264 0.14589882 0.012048659 0.10019597 0.12731323
0.0761927 0.020791765 -0.009947301 -0.04635791 -0.04156738 0.0049328934 0.069879845 0.07445765
00000000: 145b fa3c b9be 983d 846e 893d 87e5 823d
00000010: 3ad0 ce3c 2d65 ef3b 5e0f ddbc c865 9cbd
00000020: fdd0 8f3d 112d 2e3e b493 033e f6e4 423d
00000030: 483f debd 4c8f 14be 7de1 19be 39cc 0fbe
00000040: 7b77 e5bc 36cc ab3d 3915 dc3d bd1f af3d
00000050: d52e 7e3c 6ebc a5bd 87ba d9bc 603d 223d
00000060: 7275 753d 8733 7d3d e59a 803d 4323 833d
00000070: 9191 8c3c 276e 973c dab1 363d 8519 3b3d
00000080: 7553 4abc 9c15 a6bd 1fe1 42be ac79 813d
00000090: 32b9 723d 0e16 c9bd 40f6 b6ba a13e adbc
000000a0: b84d 00bd c6d0 b9bd d0e5 81bd ce58 2d3d
000000b0: 2feb d73c 5abb 943d 6674 333d 704f 1b3d
000000c0: 9bea dd3c 677e cfbd e09c b5bd 269a bcbd
000000d0: fb15 363c ed02 fcbc ddcc 893c a654 b63c
000000e0: 3002 f43b adfd 643c 1b98 8a3c c10d 573c
000000f0: 92ce 4e38 35da 80bc 41ec 183e cf50 823e
00000100: 527f b73c ac06 debc bcea 01bd 514a 28bd
00000110: 2896 903d a700 58bd ee3c 7bbd 4a32 39bc
00000120: c8d9 b03c c826 aabd 1918 37bd 1ae2 e93b
00000130: 0bc3 523e 8d56 223e 08d0 353d 0e6e 0f3c
00000140: 587f 94ba bb9f 39bd 0094 5bbc 3172 ca3c
00000150: 4d61 9c3c 7323 2f3d dc3b 893a bc14 a63c
00000160: a866 9e3c 2c94 8f3d 2ebc df3d f454 c1bc
00000170: 3e75 a2bd 838e 193c c2eb 593c 7406 b1bd
00000180: 447d 52bc 09ac bebd a258 ddbd e9b1 b4bd
00000190: 1280 f9bc 540d 99bd 086b 07bd aecb 9bbd
000001a0: c74b 6abd 8004 b63d 8eb7 dc3d 9110 df3d
000001b0: 0b16 7b3c 567d fcbc 2e3b 52bd d9ed 443d
000001c0: f348 a43c 3cca a4bc 6b59 333c cffe a63d
000001d0: 0c5e 2a3e 1eec 3abd 518c 883d f27f 99bb
000001e0: 9c2f 22bd eadc 893d 778b 33bd c8cd 1bbe
000001f0: b5cc 993c 59fc 173d 8801 873d 44d4 85bd
00000200: c296 56be 2117 79bd 5059 d1bc 7d5c 1ebd
00000210: dfb2 ccbd 8e50 993c 7eb9 763c 3e38 c33d
00000220: 6f92 693d c408 eebb a083 1fbd 3de6 393d
00000230: ef0c 6f3c 54a0 363d e15b 903d 89c3 2a3e
00000240: d369 113e 71d9 273c 7c8e a53d ffee ce3b
00000250: 8a5e dd3c 68cf 17bd a40e f73b c19f 5ebd
00000260: 4090 dabd 551c 4bba 6369 f73c 084a 06be
00000270: a548 67bd 5a2f 0bbd 9601 083d a564 563d
00000280: 0e13 e93c 749c 44bc 1b37 3f3c 0589 9e3d
00000290: 7562 9d3d f96d 013d d0a6 5dbd 7d6d ac3c
000002a0: 26de eb3c a180 4ebc a351 863d e4a0 bc3d
000002b0: b4d0 913d 8430 e93d 7cf3 993c 946b fb3d
000002c0: d68c d83d 44cb 3bbd 25f3 11bd 25d7 cbbd
000002d0: de02 d7bd 0aaa 80bc da23 1f3d caf7 1a3d
000002e0: ce0a 9cbd ba5c 003d f3f6 053c 72e6 693d
000002f0: bd5f 623d 5ac8 243d db34 c23d be8e 233e
00000300: 842e bb3d d783 a33d 7249 76bd c2a8 933c
00000310: c1c0 0abd 5167 533d bed4 423d d405 593d
00000320: 99ff 093e d926 f13d 8112 223e b033 963e
00000330: 5438 1b3e e416 1cbd 4dd0 5f3b e00e 0ebe
00000340: 6b15 d6bd bec0 74bc fa1b ca3c d2d4 27bc
00000350: 5dfe 21bc 3f9f d3bc 0bc3 373c 5476 8f3d
00000360: 150b 193d d081 a13d 8938 2c3e 4690 0a3e
00000370: 3958 923d dcd1 213d 51a1 adbb 7d25 dbbc
00000380: feb3 103b 6af7 aebc 60b2 023d 4edf c23d
00000390: afcb 563e 7e3c 253e 87af ff3d 6e74 843e
000003a0: 1d13 5b3e 4555 6ebc 6c75 c03d 3cf8 89bd
000003b0: e513 8fbd b698 05bc fdf1 f73c e734 153d
000003c0: 8824 263d ed1c db3d 03a6 ac3d 8dbb 3b3e
000003d0: 8066 153e bd67 453c 8b33 cd3d 665e 023e
000003e0: eb0a 9c3d 7e53 aa3c 01fa 22bc cbe1 3dbd
000003f0: 8f42 2abd 1ca4 a13b 2a1d 8f3d 417d 983d

fc1.bias f4 [128]
-0.03915334 -0.045395885 0.02891889 -0.039758287 -0.07322511 0.043340582 0.014034549 -0.009898067
-0.050954446 0.035615705 -0.05401317 -0.03506258 0.046147767 0.043106165 -0.018558454 -0.021041697
0.002631483 0.055627204 -0.0014849938 -0.051483694 -0.03058843 -0.041616026 -0.07120194 -0.041261442
-0.07992829 0.039935984 -0.0038163832 -0.0028407685 -0.04025536 -0.02055015 0.026793696 -0.00593146
0.07450822 -0.043271247 0.0035217053 0.045077212 -0.07087587 -0.121712305 -0.09034549 -0.073189214
-0.05487264 0.08044297 -0.011009746 -0.025615342 -0.038249582 -0.022211218 -0.020650545 0.027017599
-0.023719778 -0.05818182 -0.021264872 0.040428385 -1.0164433e-05 -0.014468823 0.024621375 0.016722066
-0.0054935585 -0.017582156 -0.030838098 0.09974055 -0.010543307 0.053809326 -0.013055361 -0.004643035
-0.039633263 -0.013408427 -0.07255929 -0.10047082 -0.033254284 -0.028570801 -0.013360783 -0.035143536
0.0064396216 -0.0051199547 -0.028197946 -0.056740806 -0.0011242899 -0.020719346 -0.06948369 0.019363316
-0.041870277 -0.0043345257 -0.015422911 0.055712257 0.054167602 -0.023108248 -0.05385577 -0.070164785
0.018126447 -0.031583242 0.0069391425 0.026792977 -0.04542284 0.005655346 -0.020038038 0.008980902
-0.027323108 -0.029159587 -0.0048307697 -0.058822237 -0.030696431 -0.04789729 0.018695164 -0.026183916
-0.01767771 -0.028167898 0.047619853 -0.0019309665 -0.036690008 -0.024285544 0.022035653 -0.10190098
-0.05536204 0.01284272 -0.062952965 0.05127971 -0.047312137 -0.011550086 0.006547569 -0.089853026
-0.0014257187 0.01558662 -0.033925172 -0.02146441 -0.012506432 0.031208277 -0.043159895 -0.092009604
00000000: 415f 20bd 09f1 39bd 4fe7 ec3c 96d9 22bd
00000010: 0cf7 95bd e585 313d 2af1 653c 812b 22bc
00000020: 9cb5 50bd c6e1 113d ea3c 5dbd c89d 0fbd
00000030: 7105 3d3d 1790 303d e607 98bc a35f acbc
00000040: f574 2c3b 5ad9 633d 20a4 c2ba 91e0 52bd
00000050: 9694 fabc 9175 2abd 53d2 91bd c201 29bd
00000060: 71b1 a3bd ea93 233d 491c 7abb 302c 3abb
00000070: cee2 24bd ca58 a8bc 747e db3c b15c c2bb
00000080: c497 983d 313d 31bd 69cc 663b e2a2 383d
00000090: 5e27 91bd 4d44 f9bd 0e07 b9bd 3ae4 95bd
000000a0: 22c2 60bd 49bf a43d 3962 34bc 44d7 d1bc
000000b0: 98ab 1cbd 4df4 b5bc 552b a9bc 0354 dd3c
000000c0: fb4f c2bc 0f50 6ebd ab33 aebc 3c98 253d
000000d0: e887 2ab7 a40e 6dbc c4b2 c93c b7fc 883c
000000e0: 4f03 b4bb 7408 90bc 2ea0 fcbc c644 cc3d
000000f0: d6bd 2cbc 2b67 5c3d 27e6 55bc 9a24 98bb
00000100: 7d56 22bd 05af 5bbc f799 94bd a5c3 cdbd
00000110: a535 08bd 500d eabc 30e7 5abc abf2 0fbd
00000120: 7603 d33b 4bc5 a7bb 61ff e6bc 0c69 68bd
00000130: e95c 93ba 9ebb a9bc 774d 8ebd d19f 9e3c
00000140: 2b80 2bbd a308 8ebb 61b0 7cbc 8932 643d
00000150: d9de 5d3d 824d bdbc de97 5cbd 8eb2 8fbd
00000160: ea7d 943c 6e5d 01bd bf61 e33b f27c db3c
00000170: 4d0d 3abd 7b50 b93b d026 a4bc a224 133c
00000180: b6d4 dfbc 16e0 eebc 6f4b 9ebb 96ef 70bd
00000190: 1577 fbbc f32f 44bd 9a26 993c a77f d6bc
000001a0: d8d0 90bc 5dc0 e6bc 090d 433d 7c18 fdba
000001b0: 4348 16bd 7af2 c6bc 1d84 b43c 76b1 d0bd
000001c0: 4ec3 62bd 466a 523c 7ced 80bd ac0a 523d
000001d0: 5fca 41bd 923c 3dbc fd8c d63b dd04 b8bd
000001e0: 2edf baba 065f 7f3c 1ff5 0abd 21d6 afbc
000001f0: c7e7 4cbc 80a8 ff3c 6ec8 30bd 886f bcbd

fc2.weight f4 [10, 128]
0.053383384 0.29273936 0.024288006 -0.043755975 0.057996072 0.023719098 -0.053534646 0.024065003
-0.014768328 0.107962444 -0.105209105 -0.040474866 -0.19420402 -0.051441777 0.055785727 -0.24413037
0.026992796 -0.08267065 -0.051930234 -0.04305786 -0.17077917 -0.16981725 0.024070151 0.07867293
-0.017079648 -0.014133245 0.021121455 -0.02233091 -0.071302325 -0.0039458745 0.13719586 -0.01866311
0.10742247 0.11717468 0.04835598 0.043737352 0.22900543 -0.06109415 -0.27468082 -0.06426089
0.053710237 -0.22432202 0.007139742 -0.009650303 0.12384746 0.0128726475 0.06784481 0.13467118
-0.12488428 0.049752574 0.07017467 0.030816587 0.058585603 0.008093963 0.050514214 -0.08834816
-0.07095008 -0.038779687 -0.061443064 -0.16156925 0.084131375 -0.14503966 0.01652949 -0.08861683
0.059944317 -0.3092722 -0.11123709 -0.05593087 0.02361048 0.07351775 -0.36459816 -0.15698735
-0.023894142 0.018633083 -0.01737242 0.006546796 -0.013011318 -0.02614901 -0.15502608 -0.11089833
0.14994311 0.13144958 0.005634483 -0.07813316 -0.045218587 -0.0143067725 -0.041481566 -0.011843441
-0.1098831 0.09787956 0.057899076 -0.07891051 -0.17454474 0.08498083 0.013521478 -0.050642174
0.039367598 0.070458345 -0.3423293 0.024212439 -0.1631615 0.06430238 -0.020772466 -0.07346112
0.112145334 0.060859025 0.048891906 -0.094196275 -0.26256642 -0.12833585 0.10590968 -0.044568565
-0.11425294 0.16103911 -0.1879367 0.053520177 -0.04926634 0.12884937 0.03075958 0.101240635
-0.017483458 -0.025153529 0.15400627 0.05537643 0.04785953 0.0042162985 0.11407463 0.21690428
0.02459248 0.18215218 -0.1070197 -0.060439806 -0.3577945 -0.110066615 -0.20040394 -0.21870257
-0.042787667 -0.07702122 -0.05627568 -0.07092285 0.18137652 -0.26676407 -0.029469613 -0.018949874
-0.17460132 -0.1090974 -0.0074321306 0.08766745 -0.06518063 0.1765012 -0.14551477 -0.28706452
-0.3407305 0.13552831 0.07328093 -0.1767987 0.15208963 0.14753968 -0.09233099 -0.03385381
0.39077687 0.12943517 -0.3873233 0.05016402 -0.13149986 -0.16662522 -0.075403795 -0.4223947
0.25868967 -0.26942897 0.005396741 0.03851812 -0.11337884 -0.07206171 0.018368034 0.06401776
-0.23773763 -0.19158798 -0.02011878 -0.38408598 0.31514087 -0.21597362 0.088503756 -0.07259875
0.2697631 0.08684851 0.07664708 -0.26491606 0.09432582 0.14341967 0.46920973 0.37105468
0.09457836 0.17994003 0.032703765 0.03344669 -0.0055136094 -0.019400433 0.12943074 0.101425305
0.20413904 -0.15723057 0.07292284 0.10040128 0.15773535 0.021808079 -0.15266459 -0.2593568
-0.33565947 -0.12252069 -0.10949709 0.14753091 -0.21196559 -0.19479868 0.012030059 0.10505047
-0.1818499 0.15037942 -0.25849575 -0.07248543 0.045626402 -0.020906564 0.06882331 0.042092085
-0.4444712 0.021853153 -0.13347916 -0.0064974036 -0.058766343 0.055360235 0.0487921 0.12860532
-0.40336287 -0.1714169 -0.038869593 -0.010490866 -0.013648699 -0.1379337 -0.19424473 -0.12437264
0.057255354 0.06623483 -0.08587775 0.06382677 0.0052595264 0.13363437 0.06028119 0.0012328174
-0.1544506 0.05026099 -0.58816797 -0.0029315564 -0.13151722 0.10253909 -0.11162521 -0.05378437
00000000: 89a8 5a3d efe1 953e a4f7 c63c 7739 33bd
00000010: 4a8d 6d3d 8e4e c23c 2547 5bbd f823 c53c
00000020: dbf6 71bc 6a1b dd3d df77 d7bd f9c8 25bd
00000030: 6bdd 46be 9db4 52bd 937f 643d 50fd 79be
00000040: ff1f dd3c 3b4f a9bd ccb4 54bd 705d 30bd
00000050: bce0 2ebe 93e4 2dbe c42e c53c 461f a13d
00000060: 9eea 8bbc 208f 67bc e706 ad3c 50ef b6bc
00000070: f406 92bd 654c 81bb 127d 0c3e 61e3 98bc
00000080: 5000 dc3d 47f9 ef3d ec10 463d f025 333d
00000090: 6680 6a3e dc3d 7abd f7a2 8cbe 379b 83bd
000000a0: 44ff 5b3d acb4 65be 7ff4 e93b 4e1c 1ebc
000000b0: bda3 fd3d cce7 523c 38f2 8a3d 3ee7 093e
000000c0: 54c3 ffbd 5bc9 4b3d bdb7 8f3d 1173 fc3c
000000d0: 75f7 6f3d 8b9c 043c fee7 4e3d e1ef b4bd
000000e0: 474e 91bd 73d7 1ebd b9ab 7bbd 6972 25be
000000f0: 124d ac3d 4785 14be da68 873c be7c b5bd
00000100: 2c88 753d ed58 9ebe 45d0 e3bd c517 65bd
00000110: c46a c13c 7990 963d 9cac babe 4bc1 20be
00000120: a6bd c3bc 68a4 983c 9b50 8ebc 8186 d63b
00000130: 6c2d 55bc 7336 d6bc 28bf 1ebe aa1e e3bd
00000140: b08a 193e b89a 063e 78a1 b83b 4704 a0bd
00000150: 2037 39bd f466 6abc 93e8 29bd fe0a 42bc
00000160: 640a e1bd 1475 c83d 9527 6d3d d59b a1bd
00000170: dbbb 32be 6e0a ae3d 3089 5d3c 2b6e 4fbd
00000180: eb3f 213d 774c 903d c945 afbe 2a59 c63c
00000190: cf13 27be f7b0 833d 052b aabc c972 96bd
000001a0: 74ac e53d 5047 793d e142 483d fae9 c0bd
000001b0: 1b6f 86be 796a 03be 2de7 d83d 878d 36bd
000001c0: 72fd e9bd 70e7 243e 7a72 40be f937 5b3d
000001d0: 80cb 49bd 17f1 033e 84fb fb3c 4057 cf3d
000001e0: 7839 8fbc c60e cebc d2b3 1d3e 65d2 623d
000001f0: 5b08 443d e028 8a3b f69f e93d 281c 5e3e
00000200: 2b76 c93c 1a86 3a3e 252d dbbd bb8f 77bd
00000210: d730 b7be 9b6a e1bd b136 4dbe 91f3 5fbe
00000220: 1f42 2fbd 4dbd 9dbd 5481 66bd 0040 91bd
00000230: c4ba 393e 4d95 88be 426a f1bc c43c 9bbc
00000240: b0ca 32be 756e dfbd 3b89 f3bb fe8a b33d
00000250: 6c7d 85bd bbbc 343e d301 15be 1ffa 92be
00000260: 3a74 aebe efc7 0a3e 5014 963d b80a 35be
00000270: 62bd 1b3e a414 173e 0818 bdbd 4baa 0abd
00000280: e813 c83e a78a 043e 3d4f c6be ca78 4d3d
00000290: e6a7 06be cd9f 2abe 4e6d 9abd 1e44 d8be
000002a0: f972 843e 98f2 89be 25d7 b03b 2dc5 1d3d
000002b0: 2a33 e8bd 1795 93bd 8f78 963c be1b 833d
000002c0: 7e71 73be a42f 44be 24d0 a4bc eba6 c4be
000002d0: 255a a13e 3028 5dbe 7541 b53d a7ae 94bd
000002e0: 641e 8a3e a2dd b13d 25f9 9c3d 14a3 87be
000002f0: e52d c13d 9bdc 123e 423c f03e e1fa bd3e
00000300: 4db2 c13d 3342 383e 62f4 053d 65ff 083d
00000310: 82ab b4bb a8ed 9ebc 7e89 043e 12b8 cf3d
00000320: d309 513e 0d01 21be 9258 953d 309f cd3d
00000330: 6085 213e dba6 b23c 1b54 1cbe 6aca 84be
00000340: 8fdb abbe 21ec fabd 0340 e0bd 5812 173e
00000350: 820d 59be 4e79 47be b919 453c b324 d73d
00000360: dc36 3abe 10fd 193e 8e59 84be 3e73 94bd
00000370: c0e2 3a3d 3e44 abbc 3cf3 8c3d c068 2c3d
00000380: bb91 e3be 6205 b33c c3ae 08be 2ce8 d4bb
00000390: fab4 70bd 6ac1 623d 3ada 473d 1db1 033e
000003a0: 9485 cebe e987 2fbe b935 1fbd e2e1 2bbc
000003b0: cb9e 5fbc 7e3e 0dbe 17e8 46be 15b7 febd
000003c0: 9784 6a3d 20a6 873d ace0 afbd 9cb7 823d
000003d0: 1b58 ac3b 73d7 083e 69e9 763d 7d96 a13a
000003e0: 4c28 1ebe 78de 4d3d 2d92 16bf 5b1f 40bb
000003f0: 73ac 06be 0400 d23d c29b e4bd 004d 5cbd

fc2.bias f4 [10]
-0.063271634 -0.064799204 -0.05815887 -0.05441458 -0.081502296 -0.16352826 0.071601614 0.0038506119
0.070671186 0.0009010333
00000000: 8f94 81bd 72b5 84bd ff37 6ebd d3e1 5ebd
00000010: adea a6bd f473 27be dea3 923d 8c5a 7c3b
00000020: 0ebc 903d 5233 6c3a
