fashion_mnist_model.pth (torch, 409264 bytes, 4 tensors)

fc1.weight f4 [128, 784]
00000000: 82dc 91ba eb19 e03c 8c75 b23c e3bf b23c
00000010: f002 d1b7 25e2 25bd 6f08 0bbd 247f 9dbc
00000020: 13cf a13d 3eea 8a3c a4ae 25be 3371 93bd
00000030: a299 d43c 3a3d c73e e591 b33e df65 e83d
00000040: 2ae6 5ebc 7869 99bd fbf8 7739 6629 1a3e
00000050: 5e2f ad3d 8ef4 853c e432 82ba 4788 c03b
00000060: 0c91 e6bc ce25 b7bc 0818 8dbc 499d a43c
00000070: c698 423d 0ad9 203d 4478 5d3b d91e ecbb
00000080: 40e8 aa3c f5a8 4ebd be04 8abd 9986 98bd
00000090: c489 29be 42de a8bd 1b8e 143e 54c7 963e
000000a0: 2e8e 0bbb 8eca b73d a3a9 8e3e ad24 0e3e
000000b0: 8407 8e3e 1099 b53e 0c89 513e 2781 96bd
000000c0: 4c7c 1e3d ab68 b83c 60e7 f7bc 1ed7 06bc
000000d0: 4675 59bc 897f a4ba 0521 813b 2c13 393d
000000e0: cb80 303d 1082 833a 3ab9 5abc dfcf 403c
000000f0: 32fd 2ebd d6a6 8fbd bac3 7dbe 5ced 6dbe
00000100: 42bf 41be 7c26 5ebe b429 44bd 6bc4 10bd
00000110: 89a1 023d 7d56 d13d b511 c63d 975c 733e
00000120: 170c 913d 3996 0fbc af6e 9dbc f523 06be
00000130: b0d1 13be cde3 efbd 574d 6ebd a9e4 c63c
00000140: 2e22 523c 93f7 e13c 7f5c d5bc fc22 443d
00000150: 5fd3 e33b f72e 0c3d 4761 2fbc 8218 abbc
00000160: ed86 b0bc 6691 00be b4d3 0bbe 0c5f 1abe
00000170: 86fa 47be d975 9f3d 14ed d83d 5f62 7d3d
00000180: b0a2 623e 0894 923d 3c79 37bd e366 613e
00000190: 1ba9 0d3d 7b44 a8bc 6019 023e d8a2 e1bd
000001a0: 4dfc a43d f355 5cbc 2aac c8bd 926c 32bd
000001b0: 5863 e73c 45ac 61bc 23ce b9ba acc7 aebc
000001c0: 5a83 afba 5f93 debb 5a04 d03c 1115 803c
000001d0: 8437 bdbd 2a27 93bc f3df f5bc 38f0 11be
000001e0: d757 a73b faf4 223e 8743 bc3d 5214 a83d
000001f0: bc79 e13e 7461 093e 5178 2b3d d7f0 2e3e
00000200: 76f7 7a3e a24f c6bd 99be 6dbd 3a37 073e
00000210: b391 023d 7324 47bc cd22 cbbc bf4b c3bd
00000220: 022d a13c 9fc2 a0bc 79b2 fabb 9532 e23c
00000230: 4f43 18bc 1555 443c 8ea1 c439 fb90 4dbd
00000240: d45c 633d 50c1 c83c 4bbe 033c 380b 55bd
00000250: c567 c4ba 13b1 8f3d dc6b 343d fb5f f73d
00000260: 94a7 313e 2283 743e 854c 893e c972 1f3e
00000270: c59a 1e3e ffb3 1c3c e00d 0ebd b6c5 623d
00000280: 1b51 1bbd 82d9 56bd 98f9 5fbd 8dc6 f53b
00000290: e097 0cbd cb9a 80bc 80b8 2f36 634b 85ba
000002a0: 4d7b 39bc ed4d 333d d18a 28bb dcd5 b0bb
000002b0: 7641 9a3d d324 683d 681e 343e 8d35 c63c
000002c0: 7978 843c 24ae 16bd 5998 043c 1ed1 b23e
000002d0: 12a2 303e 78ff 863e 114d 323e e18e 233e
000002e0: 9e2b 6e3e 106f 0d3d 1194 93bd 25df d73d
000002f0: 60ac 653d 9f9c 463d 9180 ed3c 7f53 16bc
00000300: bf24 bfbc 6b06 b3bc ab6c a3bb 2c43 1a3d
00000310: f9d1 983c 620d eb3c 2f59 303d bbf0 523c
00000320: 42df 943d f118 ce3d e55d 123e 63b3 e63b
00000330: 47f0 18bc 5111 463d a2d9 563d 4cd8 443e
00000340: ef8f 373e e099 353e 8620 2e3e cf50 f43b
00000350: 41cb 553d ee71 e5bc 4857 3abe 7141 953c
00000360: 9449 a1bd 8714 db3d ae64 343d 6da4 a0bd
00000370: 98f9 c0bb e400 873c 8c5a a53c fb08 553d
00000380: cf8a 553d b558 e73c 1943 8a3d 0668 103d
00000390: 0220 cc3d 9fab 3f3e 5660 173e a37c 453d
000003a0: 38ea 383d a0fe 413e a2fc 803e dca8 463d
000003b0: 1038 fc3d 2287 4e3c bdf4 c93d 4645 343c
000003c0: 1272 de3c b5f5 d0bd 1e24 ff3d 18e6 b2bc
000003d0: e262 8ebe d7f6 eebd e6ec 753d 4735 afbd
000003e0: 57b5 44bc 07d5 913b aac8 033d ca82 6d3d
000003f0: fce1 2a3c 2bb2 513d 773c 693d ec16 c23d
-0.0011128339 0.027356109 0.021784566 0.021820014 -2.491611e-05 -0.04049887 -0.03394359 -0.019225664
0.079008244 0.016957399 -0.16179901 -0.071993254 0.025952164 0.389139 0.35072246 0.11347555
-0.01360468 -0.0749082 0.00023648508 0.15054855 0.084563 0.016351964 -0.000993338 0.0058756205
-0.028145336 -0.022356894 -0.017223373 0.02009453 0.047508977 0.039269485 0.0033793608 -0.0072058258
0.020862699 -0.0504541 -0.06739186 -0.074475475 -0.1655646 -0.08245517 0.14507334 0.2944895
-0.0021294462 0.08974181 0.27863798 0.13881178 0.2774011 0.3546834 0.20462435 -0.073488526
0.038692757 0.022510847 -0.030261695 -0.008229999 -0.013272589 -0.0012550215 0.003940704 0.0451843
0.043091577 0.0010033268 -0.0133498255 0.01176831 -0.042721935 -0.07014243 -0.24781695 -0.23235077
-0.18920615 -0.21694368 -0.047891334 -0.03534357 0.031892333 0.102215745 0.09671346 0.23765789
0.07082384 -0.008763843 -0.019217817 -0.13099654 -0.14435458 -0.117133714 -0.058179226 0.024278956
0.012825532 0.027583873 -0.026045082 0.047884926 0.0069526876 0.034224477 -0.010704345 -0.02088571
-0.021548713 -0.12555465 -0.13654977 -0.1507532 -0.19529161 0.077861495 0.10592094 0.061861392
0.22132373 0.07157141 -0.044793352 0.22011904 0.0345851 -0.020540467 0.12704992 -0.11017388
0.08055935 -0.013448226 -0.09798463 -0.043560572 0.028245613 -0.013773982 -0.0014175813 -0.021335445
-0.0013390586 -0.0067924703 0.0253927 0.015635045 -0.092391044 -0.01796301 -0.030014014 -0.14251792
0.005106907 0.15913764 0.09192567 0.08207001 0.44038188 0.13416082 0.04186279 0.1708406
0.24508461 -0.096831575 -0.058043096 0.13204661 0.03187723 -0.012154686 -0.024796868 -0.09535932
0.019674782 -0.019624053 -0.00765067 0.02761201 -0.009293391 0.011983176 0.000375044 -0.050187092
0.05550845 0.024506241 0.008040975 -0.052012652 -0.0014984539 0.07016196 0.044048175 0.12078854
0.17349082 0.23878148 0.26816192 0.15571131 0.15488727 0.009564399 -0.0346812 0.055364333
-0.037919145 -0.052453525 -0.05468139 0.0075004757 -0.034324527 -0.015698811 2.6184425e-06 -0.0010169562
-0.011320901 0.043775488 -0.0025717507 -0.005396588 0.07532017 0.056675743 0.17589724 0.024195457
0.016170727 -0.036787167 0.008092963 0.3492517 0.17249325 0.26366782 0.17412211 0.15972473
0.23258826 0.034529746 -0.07205976 0.10540608 0.056072593 0.04848921 0.02899197 -0.00917518
-0.023332952 -0.021853646 -0.0049873195 0.037661716 0.01865481 0.028692905 0.043053802 0.012874777
0.072691455 0.10063351 0.1429363 0.0070404275 -0.00933463 0.048356358 0.052453645 0.19223136
0.17926 0.1773448 0.17004594 0.007455922 0.05219579 -0.028008427 -0.18197358 0.018219681
-0.07875362 0.10697275 0.044041328 -0.07843862 -0.005889129 0.016479917 0.020184778 0.052010518
0.05213433 0.028240541 0.06751079 0.035255454 0.099670425 0.18717812 0.14782843 0.048214566
0.045145243 0.18944788 0.25192744 0.04850088 0.123153806 0.01260546 0.09861133 0.011002844
0.027154002 -0.10203115 0.12458061 -0.021838233 -0.27809817 -0.11668175 0.060040377 -0.08555084
-0.012006125 0.0044504437 0.03217379 0.05798606 0.010429855 0.051195305 0.05694243 0.09477028

fc1.bias f4 [128]
00000000: dc4f a0bc 4771 04bb f762 e4bb a87a 5f3d
00000010: 68eb 093c 22bb 543c b226 bebc 80b6 393d
00000020: 19bc 74bb 9aab 6b3c 8558 7bbd 52ed abbd
00000030: 33f3 edbc a02e 01bd 2efc 8dbb e143 0fbc
00000040: 61f2 75bc e6ca 9a3b 387b a8bd a0d9 0ebd
00000050: 65dd fdbc 6619 673d 9879 c7bb d70b 1bbd
00000060: 6bc9 49bb 3c02 1dbc 97ab 6c3c 0bda ed3c
00000070: 9c60 29bd 23a7 12bd bea0 793c 82f2 98bd
00000080: 3d8e 0c3d f7c2 4ebc 2701 bb3d 6758 523c
00000090: 697c 863c 7c1a 27bd 0ef8 0a3d 67d1 dabc
000000a0: f507 a3bd d075 c83d 8ccb b63c 7636 82bd
000000b0: 2897 21bd 1b64 5ebd ffe1 7cbc 0f70 90bd
000000c0: 042f fe3c ceab 85bd 5e9e 56bd b181 d4bc
000000d0: 9fdb 12bd fd00 53bd 5c9f 7cbd aaf1 bd3c
000000e0: 1a39 c1bb 35f6 56bc 8998 c03c 5009 9bbd
000000f0: af33 99bd 0781 4f3d 793e 1fbd e9e1 f8bc
00000100: 921c 7cbd 5d86 e3bb a15a c4bc 213f 6ebd
00000110: 158c 14bc f128 55bd 6280 b8bd 808b 53bd
00000120: d6c8 f4bc 5e7b a6bd 0a90 f5bc e425 d0bc
00000130: ac10 16bd 8f28 17bd af95 30bd db0c d4bc
00000140: 61ea 92bc 2484 193b a641 013d 2c9c f73c
00000150: 8e45 b5ba 4a35 b63c 5212 84bd b9b6 7bbc
00000160: c266 823d d43d 5d3d a2af 963c f7c2 c7bc
00000170: 97bc fa3c f628 663d 0fa3 85bc 2dfd 1c3d
00000180: bc31 083a 7163 f9bc c1ed 00bc 0fe9 1a3d
00000190: 2a4a f13c 665a fc3b becb 3f3c fefb 1ebd
000001a0: 6dc7 26bc 6e7a 7e3c a2ab bc3c 7c30 d4bd
000001b0: e14d 8ebd b1a3 91bb 3746 9b3c 824e 0ebd
000001c0: 790d 0dbb 4a8c fcbc 0b6b 0dbd f51f 2a3d
000001d0: b100 33bd aaae 5f3d bcd7 8fbd 0390 80bc
000001e0: 2386 473d 5efa 4c3d be05 89bd fd1c 36bd
000001f0: 4c0f 38bb 3dcd 54bd 758f 49bd ab63 f5b8
-0.01956933 -0.002020912 -0.0069698053 0.054560333 0.008417942 0.012984069 -0.02321181 0.04534006
-0.003734356 0.014384175 -0.061363716 -0.08394875 -0.02904663 -0.031538606 -0.0043330407 -0.008744211
-0.015011401 0.0047238944 -0.08226627 -0.034875512 -0.030989358 0.056420706 -0.006087493 -0.03785309
-0.003079022 -0.009583052 0.014445207 0.029034635 -0.0413519 -0.035803925 0.015236078 -0.0746813
0.034315336 -0.012619725 0.09131079 0.01283846 0.016416745 -0.04079674 0.03392797 -0.026711179
-0.07960502 0.09788096 0.022313856 -0.06358044 -0.039450794 -0.054294687 -0.015434741 -0.070526235
0.031028278 -0.0652691 -0.052397124 -0.025940748 -0.03585398 -0.051514614 -0.061675414 0.023186523
-0.0058966996 -0.013120224 0.023510234 -0.075701356 -0.07480561 0.05066016 -0.038877938 -0.03038116
-0.061550684 -0.0069435076 -0.023968996 -0.058165673 -0.009066601 -0.052040998 -0.09008862 -0.05164671
-0.029880922 -0.08128999 -0.02997591 -0.025408693 -0.036636993 -0.036903914 -0.0431115 -0.025885036
-0.017934026 0.002342471 0.031556748 0.030225836 -0.0013829933 0.022242207 -0.06448807 -0.015363389
0.06367256 0.054014042 0.018394295 -0.024384959 0.030607505 0.056191407 -0.016313104 0.038327385
0.0005195399 -0.030442925 -0.007869185 0.03781992 0.02945431 0.007701206 0.011706291 -0.038814537
-0.010179383 0.015532119 0.02303106 -0.1036081 -0.06948448 -0.0044445624 0.01895438 -0.03474284
-0.0021522923 -0.030828614 -0.034525912 0.041534383 -0.04370183 0.054609932 -0.0702357 -0.01569367
0.048711907 0.050043456 -0.06690548 -0.04446124 -0.002808529 -0.051953543 -0.049209077 -0.00011701075

fc2.weight f4 [10, 128]
00000000: 25e2 793d 0513 f13d ddd7 0cbd 6476 0a3d
00000010: 2127 f938 e191 0e3e a2f4 3b3c 30e1 7d3c
00000020: 858c a13d 5d2e 6f3b 60c7 8bbe 0e01 07be
00000030: 04c6 a3bc b3f4 c6bd 38fd bf3d c456 fcbd
00000040: 2020 63bd 4209 c1bd ebe4 24be 4552 1d3d
00000050: 312f b23c d978 713c 5df7 4f3c a8df a43d
00000060: 4633 9f3d 0226 3bbd 4218 bb3d 0b5c 60bd
00000070: 8503 25bd 17e0 153d 72f0 b43c e5e5 1d3e
00000080: 6dda 8a3c 0d52 8e3d 5aa5 d9bc 66a5 663d
00000090: 939a 02be b55c 83bd 804f f63d 672b 42bd
000000a0: 4024 403e 5e5b cb3d 5604 82bd 4927 a33c
000000b0: 966a 023d 4c24 383d 819c 803d 5b97 a63d
000000c0: 4667 5dbe 8cd6 bc3d 4b50 39be 7661 d13d
000000d0: e058 fbbd 2aa0 ba3d 7518 683e 2370 b83d
000000e0: ce37 223e 9f84 8e3a d979 773d 9115 133e
000000f0: c869 703d 8de0 9d3d 29f8 983d 23cf a2be
00000100: 3eb6 2cbd b56d 8bbd c436 0c3b 5462 763c
00000110: f7f2 93be defa f63d 74d9 88be 59b0 61be
00000120: 6ba4 adbd 3e6f 373e cda2 cbbd 7085 ba3d
00000130: 18fd 813d c911 b6bd 8d16 77bd b19b 01be
00000140: ab53 34be 5e47 0e3e 9b0a 0dbe 58f0 da3c
00000150: e433 7ebd 713a 7a3d 1578 10be 2a92 5b3d
00000160: c786 2c3e 8456 643d 9251 7ebe 502b 42be
00000170: 419b a5bd 1686 2f3d 357b 22bd c3e8 1cbe
00000180: ff57 d73c dd69 b83c 780e 1dbd 5cb2 03be
00000190: 485c 083d f653 ca3b 016e ca3d cc44 683e
000001a0: 6e12 88bd dad9 d13b 2990 59bd 3daa 5cbd
000001b0: a3ef 48be 052f 863b 462b 86ba ea4c adbd
000001c0: b604 10bd 123d 88bc bdcb 723d b283 8ebd
000001d0: 3637 85be 5112 dbbd 33c5 163d 7e93 673d
000001e0: 1f22 ed3c a269 593d 2695 59bd 9315 16bd
000001f0: 350c 93bd 6012 18be 2aa9 e8bd 681d 1bbe
00000200: 7b2b df3d e259 f6bd 3306 043e b92b f4bc
00000210: 2d65 1abc 62ff 263e 53f5 ae3d 5843 cfbd
00000220: e91a 2ebd b8fb b3be bd9e 673d b6e2 8ebe
00000230: 79f5 e63b ddb1 a13d 1850 7b3d d6a7 c1be
00000240: e5c4 9e3d f4b8 55be 8ec3 9d3e 6823 b13c
00000250: 144b 8bbc 3fc8 69be b1b4 a53e 4e23 0bbe
00000260: e9c0 0cbf 07d1 933d f545 203b 5608 eb3c
00000270: f1ef c43d 088a 9a3d d378 b1bd 8585 36be
00000280: ea0f e5be b8d9 3b3e 80bf 403e 20f2 81bd
00000290: 3bd5 4ebe 94d7 4a3d aa2b 3abe 4b47 543d
000002a0: fb30 8dbd 4f72 0b3d 246c d1bc e6e1 b3be
000002b0: 3892 4c3e a5c5 a83d a800 52bd 829f 8f3b
000002c0: fb9c 94be 907e e33d d7c6 543d 41b4 b8bd
000002d0: 56a7 a93d 894e 7b3c eb94 2abe 2197 1ebe
000002e0: 82e5 c73d 2e96 9cba 6940 e43d a19c ca3d
000002f0: 9e22 efbd 2288 06be fe97 4fbe 3320 92bd
00000300: 7e02 eb3c 672f 18bd afc6 0d3e e97e d33d
00000310: f18c 823c 90b9 a73a 680b a9bd 21b8 873d
00000320: 7e9e 30be af79 8bbd 228b 17be d953 4fbe
00000330: 3bc1 5abc cb0a 67bd 1955 30bd c497 2d3e
00000340: b365 2f3e 8931 b9be 0333 89be e429 b5bd
00000350: 335e 943e 56c4 a4bd cee8 183e 34cc ab3d
00000360: 2316 d7bd 3fa9 38bd 6c48 253d dd16 983d
00000370: f656 35be b139 1f3c 7e9e 4d3e ccbb 35be
00000380: 3fe4 07bc 4b37 903d 0eaa c83c a52b 373e
00000390: 4859 f8be e571 c4bd 411e e13c 4b61 3e3d
000003a0: 7866 f5bd 998b 27be 44e1 b3be 7c5b d0bd
000003b0: ebe5 8fbd 7fec dc3c 9e79 cd3c c360 94be
000003c0: f08b 0fbd 4b38 843e 2570 e0be a86b 9bbd
000003d0: e62e 433c 71ea 6fbe 5638 773d 6143 2dbe
000003e0: 034b 903d 8e51 e73e 24cb 1bbd 303e 0f3c
000003f0: 28b3 2e3d 7458 44be cb94 d43d 1995 153e
0.061006684 0.11771206 -0.03438555 0.033804312 0.000118805336 0.13922836 0.011471899 0.015495583
0.0788813 0.003649614 -0.2730055 -0.13183996 -0.019991882 -0.097146414 0.093744695 -0.12321237
-0.05545056 -0.09425594 -0.1610295 0.038408536 0.021751018 0.014738285 0.012693253 0.080504715
0.077734515 -0.045690544 0.09135486 -0.05477528 -0.04028656 0.03659066 0.02208731 0.15419729
0.016949857 0.06949244 -0.026568104 0.05631008 -0.12754278 -0.06414167 0.12026882 -0.047404673
0.18763828 0.09929536 -0.06348483 0.019916194 0.03183993 0.04495649 0.06279851 0.081343375
-0.21621427 0.09220609 -0.18097036 0.10223667 -0.12272811 0.0911258 0.2266558 0.090057634
0.158416 0.0010873264 0.060418937 0.14363696 0.05869463 0.07708845 0.07469208 -0.31798658
-0.042165987 -0.06808034 0.0021394948 0.015038092 -0.28896305 0.12059568 -0.26728404 -0.22039928
-0.08478626 0.1791353 -0.09943161 0.091074824 0.06347102 -0.08890111 -0.06032424 -0.12657048
-0.17610042 0.13894412 -0.13773577 0.026725933 -0.062061206 0.06109089 -0.14108308 0.05360619
0.16848288 0.05574657 -0.24835804 -0.18961835 -0.08086253 0.042852484 -0.03966828 -0.15323167
0.026287077 0.022511417 -0.038343877 -0.12861007 0.03329113 0.0061745597 0.09884263 0.22682494
-0.0664414 0.0064041438 -0.053115997 -0.05387329 -0.19622664 0.0040949606 -0.0010236285 -0.08461936
-0.035160743 -0.016630683 0.05927633 -0.06958713 -0.26018685 -0.10696853 0.036809158 0.056537144
0.028946934 0.053079255 -0.053120755 -0.03664167 -0.07180063 -0.1485076 -0.113603905 -0.15147936
0.10896965 -0.120288625 0.1289299 -0.029806005 -0.009423536 0.16308358 0.08542886 -0.10120267
-0.042506132 -0.35152984 0.05654787 -0.27907342 0.0070483056 0.07895253 0.06135568 -0.3782336
0.077523984 -0.20871335 0.3081326 0.021623328 -0.017003573 -0.22830294 0.3236442 -0.13587686
-0.5498186 0.07217603 0.002445576 0.028690498 0.09616078 0.075458586 -0.086656235 -0.17824371
-0.44738704 0.18344772 0.18823051 -0.0634501 -0.20198528 0.049521998 -0.18180719 0.051825803
-0.06894108 0.03404456 -0.02556426 -0.35133284 0.19977653 0.08240823 -0.051270157 0.0043830285
-0.29026017 0.11108124 0.05194744 -0.09018756 0.0828387 0.015338548 -0.1665837 -0.15487339
0.09760572 -0.0011946613 0.11145098 0.09893156 -0.116765246 -0.13137868 -0.20272824 -0.07135048
0.028687712 -0.03715458 0.13845323 0.103269406 0.015936347 0.0012796391 -0.08254129 0.06626917
-0.1724796 -0.06810319 -0.14799169 -0.20246829 -0.013351734 -0.056406777 -0.043049905 0.16952425
0.17128639 -0.36170605 -0.2679673 -0.08845881 0.28978118 -0.080452606 0.14932558 0.08388558
-0.10502269 -0.04508328 0.04035227 0.07426236 -0.17708954 0.009718345 0.20079991 -0.1774742
-0.008294164 0.07041796 0.02449515 0.17887743 -0.48505616 -0.09592036 0.027480246 0.046479505
-0.11982435 -0.16361846 -0.35132802 -0.10173699 -0.07026275 0.026968239 0.025082406 -0.28980073
-0.035045564 0.25824198 -0.4383556 -0.07588893 0.011913037 -0.23429276 0.06035646 -0.16920234
0.07045557 0.4517941 -0.038035527 0.008742854 0.042651325 -0.19174367 0.103799425 0.14607657

fc2.bias f4 [10]
00000000: 23f4 babd f780 babd b4fa 3f3d a9d1 a13c
00000010: d667 e23b d036 0cbe c879 85bc a3eb 37bd
00000020: 255c 2d3e 6936 f0bc
-0.09128597 -0.09106629 0.04686995 0.019753294 0.006909351 -0.13692784 -0.016293421 -0.044902455
0.16929682 -0.02932282
